backend/models/fingat_model.pth (torch, 35746 bytes, 23 tensors)

gru_attention.gru.weight_ih_l0 f4 [48, 21]
000000 95 cd 2a 3e a5 84 39 3e 52 17 68 bd 08 49 4e 3e
       0.16679986 0.18117006 -0.056662865 0.20145047
000010 b7 29 17 bd f5 95 1c 3d f1 ae 0c be c9 c7 c8 3d
       -0.036905017 0.038228948 -0.1373861 0.09803731
000020 20 d6 39 3e f1 6e 4b be ec bc 22 3e 0f 61 b3 3c
       0.18148088 -0.1986654 0.1589238 0.021896867
000030 3e 94 0d 3e 9a 42 8d 3c 23 56 c4 3d 15 b1 5c bd
       0.13826081 0.017243672 0.09586742 -0.053879816
000040 ab b1 27 3e 10 73 1a 3c ab e2 b1 bd 5b 59 78 3d
       0.16376369 0.009426847 -0.086858116 0.06063209
000050 77 c2 d7 bd 12 42 40 bc cc 8a 95 bd 1c c6 1d 3e
       -0.10535138 -0.011734502 -0.07301864 0.15407604
000060 9e 48 20 be 52 67 7f bd fa 08 06 bd a6 9c 0c be
       -0.15652701 -0.062354393 -0.032723404 -0.13731632
000070 cc 91 24 3c 6f 61 69 be 46 52 40 3e 28 35 46 be
       0.010044526 -0.22791074 0.18781385 -0.19356215
000080 44 c2 1d 3e 81 bd c0 3c 18 85 69 bd cc 69 01 3e
       0.15406138 0.023527863 -0.057011694 0.12638015
000090 10 69 53 3c dd 78 2a 3e 5c e1 1c 3c 64 7f 88 bd
       0.012903467 0.16647668 0.009575214 -0.06664923
0000a0 6e 71 20 3d 90 b8 2f bd ff 3c d2 3d e6 77 5e 3e
       0.039170675 -0.042900622 0.1026554 0.21725425
0000b0 d5 6e 10 3e ed 9a df bd 1a 7a d7 3d 5a dc 1b 3d
       0.14104779 -0.109182216 0.10521336 0.03805194
0000c0 8f 81 e3 3d ec f2 25 be ad 03 83 be 2f 95 e5 bd
       0.11108696 -0.16205949 -0.25588742 -0.11210095
0000d0 a1 17 55 be 02 a7 43 3e 6c b1 6b 3d 19 52 a9 3d
       -0.20809795 0.19106677 0.05754225 0.08267612
0000e0 33 d2 90 3d 3c 2f 86 bc 1c ee 41 3e 4f 8c 40 be
       0.07071342 -0.016379945 0.18938488 -0.18803523
0000f0 a9 2d 49 3c ab 10 2d be e5 cf 98 3d ac e2 c6 bd
       0.012278953 -0.1690089 0.07461528 -0.09711203
000100 6a 40 7e 3d d0 8d 83 bd 77 aa 40 3e e3 e4 10 be
       0.06207315 -0.06423533 0.18815027 -0.14149813
000110 50 95 37 be 75 95 1b be b4 c4 53 3e 9f 77 89 3d
       -0.17928052 -0.15193732 0.20680505 0.06712269
000120 4e c9 67 3e 2d 69 47 be 91 64 81 be 65 1b 51 be
       0.22635385 -0.19473715 -0.2527204 -0.20420606
000130 f6 5b 3d be 61 03 a4 3d ea c6 99 3d f1 dc 38 3e
       -0.18492112 0.08008457 0.07508643 0.18053032
000140 e6 fa 0c be df 7c 45 be d7 2b d1 3d 66 13 e4 bd
       -0.13767585 -0.19285916 0.1021344 -0.111365125
000150 9d 0f d0 3d 57 e4 86 bd e2 db c4 3d 73 14 2f be
       0.10159228 -0.06586521 0.09612252 -0.17097645
000160 47 c7 36 bd 7f 5d 4d 3d ee a9 ca 3c 94 22 73 bd
       -0.04462364 0.050137993 0.024739232 -0.05935915
000170 4f c9 e1 3d 2b 32 0a 3e 4e 55 03 be 80 64 bd bd
       0.11024725 0.134957 -0.1282551 -0.092476845
000180 ee 69 25 3e 39 2a 83 bd 9e 86 78 bd 55 ae 43 be
       0.1615369 -0.06404538 -0.060675256 -0.19109471
000190 9d ff ac bd f8 a3 2b 3d 25 3b 0d bd 23 88 0f be
       -0.08447192 0.04190442 -0.034480233 -0.14016776
0001a0 a3 42 5f bc 35 60 f5 bd 5e 5a 24 be 15 bd b7 bd
       -0.013626727 -0.11981241 -0.16050097 -0.089716114
0001b0 38 30 28 be 4d cb f0 bd 3e c3 82 3e 2e 95 8d 3d
       -0.16424644 -0.117575265 0.25539583 0.069132194
0001c0 7f c2 c9 3d 3d be 36 be 01 fb df bd a7 9e e2 bc
       0.0985155 -0.17846008 -0.10936547 -0.027663542
0001d0 66 bb 7e 3d 01 bc 21 be 57 41 81 bd 30 da c7 bd
       0.062190436 -0.15794374 -0.06311291 -0.09758413
0001e0 4f d5 dd 3c 16 2f b3 bd ea 20 7a 3c 7e 25 21 be
       0.027079253 -0.08749215 0.015266636 -0.15736958
0001f0 a4 ee 22 be ef bb c9 bd 7a 8b a3 bd 17 f1 3a be
       -0.15911347 -0.098502986 -0.079855874 -0.18256031
000200 8b e0 48 3e ef 04 39 bd c4 b3 2d 3e a1 e9 33 3d
       0.19616906 -0.04517072 0.16963106 0.043923978
000210 61 37 39 be a1 14 29 3e 23 a7 77 bd ad a0 a2 bd
       -0.18087532 0.16511776 -0.06046213 -0.07940803
000220 16 2f 40 be a5 a4 64 be 98 70 8f 3d 00 a9 34 bd
       -0.18767962 -0.22328432 0.070038974 -0.044106483
000230 6f fc 93 3d 60 30 3c be 44 e2 2e 3e 5e 85 26 be
       0.07225882 -0.18377829 0.17078501 -0.16261813
000240 12 7d 5f bd ac f5 e0 3c e7 88 f7 3d 79 65 35 3e
       -0.054562636 0.027460895 0.12086659 0.1771449
000250 7f ad 51 3e 49 5f 5b be e1 88 2f 3d e6 43 9d bd
       0.2047634 -0.21423067 0.042855147 -0.07678966
000260 22 15 3f bd 3d 6e 48 be 43 38 4b 3e f9 a5 38 be
       -0.046651013 -0.19573303 0.19845681 -0.18032064
000270 5d 32 ef 3d c4 c6 aa 3d 09 b2 83 3d c8 29 0f be
       0.11679528 0.08338693 0.06430442 -0.13980782
000280 ba 24 51 3e bf 69 2f 3d 00 0c b0 3c 15 d0 4c be
       0.20424166 0.042825457 0.021490097 -0.20001252
000290 08 df bc 3d 8e 37 27 bd cb 5b ed bd c8 5c 43 3e
       0.09222227 -0.040824465 -0.11589774 0.19078362
0002a0 ea 60 19 3d 01 73 17 be 63 e0 09 be 04 5e da bc
       0.03744594 -0.14789964 -0.13464503 -0.026656158
0002b0 f2 ac b3 3d bf 50 a1 bd 8f 62 0b be 8d 95 ae bd
       0.08773221 -0.07876729 -0.13611816 -0.08524618
0002c0 8f 5c 35 be 9b 78 a1 3d b1 56 2f 3e 04 99 5e be
       -0.1771109 0.07884332 0.17122914 -0.21738058
0002d0 4d fc 3e 3d 2e 67 f8 3d c8 68 46 3d 14 b2 b2 bd
       0.04662733 0.12129055 0.04843977 -0.08725372
0002e0 70 4d ef 3d b6 fb ed 3d 84 5d d5 3d 0f 35 e4 bc
       0.11684692 0.11620276 0.10418227 -0.027857332
0002f0 06 cf 9f bd 74 ad 91 3c 03 91 4d bd 61 e6 a5 bd
       -0.078031585 0.017782904 -0.050187122 -0.08100582
000300 66 b0 17 3e 39 66 3c 3e b4 6f 09 bd bd 3e 78 bd
       0.14813384 0.1839837 -0.033553794 -0.060606707
000310 c6 ec 85 bb e6 04 90 bc c5 f7 63 3d 27 b7 88 3d
       -0.0040870635 -0.01758046 0.055656213 0.066755585
000320 11 56 68 be 22 65 c2 bd a7 0d 4a 3e 9f d1 af 3d
       -0.22689082 -0.09491946 0.1973177 0.08584904
000330 c1 30 84 bc ab bf 18 be 70 27 1d be 20 e3 69 be
       -0.016136529 -0.14916866 -0.15347075 -0.22840548
000340 e4 de b9 bd 63 1e 98 3d 5f 94 2e 3e 2e 7f 04 3e
       -0.09075716 0.07427671 0.17048787 0.1293914
000350 75 3d 46 be 9b 29 ff bd f9 08 4f bc a5 8c 78 3e
       -0.19359381 -0.124591075 -0.012636417 0.24272402
000360 51 14 33 3d b6 41 54 bd 49 ee db 3d 09 73 ab bd
       0.043720547 -0.05182048 0.10738809 -0.083715506
000370 3c 90 11 be b5 c2 37 3e 69 42 ce bd 32 92 1b bd
       -0.14215177 0.17945369 -0.100712605 -0.03798122
000380 11 6f 6a be ae 58 2c 3e 97 0b 37 3e 12 22 c4 3d
       -0.22893931 0.16830704 0.17875515 0.09576811
000390 df 7d 24 be c1 a5 6a be 02 f5 32 be 19 51 2a 3e
       -0.16063641 -0.22914793 -0.17476276 0.16632499
0003a0 61 23 d4 3d ea 15 42 3e 89 74 e8 3d b1 17 1b 3d
       0.103583105 0.18953672 0.11350352 0.03786439
0003b0 c3 99 0e bd 83 be 38 be 9f df 51 be 8e e8 68 be
       -0.034814607 -0.18041424 -0.20495461 -0.22744963
0003c0 df 5f bf 3d 18 3d e5 bd f5 c6 72 bd c6 5a 18 be
       0.09344458 -0.11193293 -0.05927177 -0.14878377
0003d0 71 5a 7a bd e5 2d 34 be e1 02 25 be bd 18 93 3d
       -0.061121408 -0.17595632 -0.1611438 0.07182453
0003e0 f0 bd 9f bd 9c 20 08 3e 24 0a b9 bd 86 17 40 be
       -0.077998996 0.1329369 -0.09035137 -0.18758973
0003f0 b2 d3 13 bd 32 26 e0 bd 26 18 8b bd 59 5e 65 be
       -0.03609056 -0.10944785 -0.06791715 -0.22399272

gru_attention.gru.weight_hh_l0 f4 [48, 16]
000000 38 e8 14 bd f3 88 8e bc d2 7c 52 3d 11 55 d0 bd
       -0.036354274 -0.017399287 0.05138857 -0.10172475
000010 8d 44 b5 bd c6 35 b4 bc f8 f8 76 3b b2 7c 90 3d
       -0.08850966 -0.021998297 0.0037685018 0.07055034
000020 18 d9 00 be 21 14 95 3c 9a c3 dd 3d ea b8 ae 3d
       -0.12582815 0.018198075 0.10828324 0.08531363
000030 48 13 30 be 84 c4 d9 bc 03 18 51 be 7c 26 bf bd
       -0.17194855 -0.026582964 -0.20419316 -0.09333512
000040 32 c0 92 3d 98 26 b1 ba dc 5f d5 3c 39 d9 b3 bc
       0.071655646 -0.001351553 0.026046686 -0.021954166
000050 07 a6 96 3c 77 9e 85 bd 06 02 96 3d 2d d6 63 bd
       0.018389715 -0.065243654 0.07324605 -0.055624176
000060 0c 84 01 bd cb 02 b2 bd d4 43 08 3c 13 b1 e2 3d
       -0.03162007 -0.08691939 0.008316953 0.110689305
000070 cd d2 a0 3d b1 39 9a bd 96 2a e3 3a 65 15 a6 bb
       0.07852707 -0.07530535 0.0017331417 -0.0050684684
000080 81 ce 3f be c2 91 55 3e 40 e5 13 3d 5f 86 91 3d
       -0.18731119 0.20856383 0.0361073 0.071057074
000090 77 88 b1 bd 4b e1 01 be e1 0c 0c 3d 69 73 a2 3d
       -0.08668607 -0.12683599 0.03419197 0.07932169
0000a0 2e 7d 1a 3d d0 72 08 be 7f ac 67 3e 79 95 59 bd
       0.037717037 -0.13325047 0.22624396 -0.053121064
0000b0 b4 0e 0b be b3 44 da bd a2 3c 60 3e 9f 47 c0 3b
       -0.13579828 -0.106576346 0.2189813 0.005867913
0000c0 75 c6 5a bd b1 70 c3 bd a9 d9 4b bd 9f cb 53 be
       -0.05341192 -0.095429786 -0.049768124 -0.20683144
0000d0 eb 88 27 be 35 11 11 3e f8 e2 2e 3e 3a 45 4e 3e
       -0.16360824 0.1416672 0.17078769 0.20143595
0000e0 cc f2 2c be e0 ec d8 3d 6c f8 18 be a0 d3 01 3e
       -0.16889495 0.10592055 -0.14938515 0.12678385
0000f0 b5 9c 3f 3e 33 c9 39 3e 35 35 19 3e 6e d0 1e 3e
       0.18712123 0.18143158 0.14961703 0.15509197
000100 e2 85 59 bc 93 19 09 3d a8 cf d2 bc 20 17 2f 3d
       -0.013276549 0.033471655 -0.025733784 0.042746663
000110 26 2d 11 bd 3b 2d eb b9 aa 10 f9 bd 2d 6b 19 bd
       -0.035443448 -0.00044856392 -0.121613815 -0.037455726
000120 00 1b 19 bd 94 e6 16 bd 1e fb 5e bd 0a 2b d4 bd
       -0.037379265 -0.03684099 -0.054438703 -0.103597715
000130 e1 0d b0 3c 4c ad 3c 3d da f5 07 3e dd 94 73 3d
       0.021490993 0.046063706 0.13277379 0.05946814
000140 76 f7 a5 bd e5 f9 27 be ca b2 82 3d bf f3 6a 3d
       -0.0810384 -0.16403921 0.063817576 0.05736136
000150 ea c0 29 be 49 ee 98 3d 0b bd 2e 3e 3b 86 7a 3c
       -0.16577497 0.07467324 0.17064302 0.015290792
000160 b8 63 ee bd 63 cf 1d 3e 93 88 8d 3d aa dd 05 3e
       -0.116401136 0.15411143 0.06910815 0.1307284
000170 4d 74 12 be f1 59 5c 3d 4a 30 ff bd 38 e8 1f 3e
       -0.14302178 0.053796712 -0.12460382 0.15615928
000180 44 c3 ae bd cc a3 dc 3d c1 55 36 3d 04 18 94 3b
       -0.08533338 0.10773429 0.044515375 0.0045194644
000190 3f 86 c9 bc 16 8f ad 3d ed 15 d4 bd 1d aa 29 be
       -0.024600146 0.08474557 -0.103557445 -0.165688
0001a0 e1 74 a6 bd f0 cc 04 3e 10 7f 58 bd 28 1a 82 3d
       -0.08127762 0.12968802 -0.05285555 0.06352645
0001b0 44 8d 9f bd 64 90 1f 3e 39 93 04 3e dc 45 9a 3d
       -0.07790616 0.15582424 0.12946786 0.07532856
0001c0 34 68 0b be a9 90 49 be 14 32 fd bb 96 45 e8 bd
       -0.13613969 -0.1968409 -0.007726917 -0.113413975
0001d0 a2 9a 42 3e 49 9d 5e be b4 78 bf 3d 88 53 54 3e
       0.190043 -0.21739687 0.09349194 0.2073499
0001e0 9d c6 09 3e 94 dd 94 3d c9 74 71 be 41 8a 60 3e
       0.13454671 0.07268825 -0.23579706 0.2192774
0001f0 38 89 24 bd 97 b8 49 be 66 1a 69 3e 50 13 a3 bd
       -0.040169924 -0.19699322 0.22763976 -0.07962668
000200 2f 3f 74 bc 28 1b 3b 3e 96 c0 0d be 24 9c ee bd
       -0.014907642 0.18272078 -0.13842997 -0.11650875
000210 c6 cd 36 3d cc 12 2a bd 6e 5b 24 3d 92 e1 29 be
       0.044629835 -0.041521832 0.040126257 -0.16589954
000220 86 71 17 3d 68 61 cf bd 68 a6 e0 bd a0 05 38 be
       0.0369735 -0.10126001 -0.109692395 -0.17970896
000230 ff 59 f5 3d 10 66 42 3d 17 8c 41 be 0e d7 15 3e
       0.11980056 0.047460616 -0.18901096 0.14632818
000240 6d 32 76 3d ed 7d d4 3c fc 6b fe bd 97 eb a5 3c
       0.060106684 0.025938952 -0.1242294 0.02025394
000250 3b 4d 6c 3e b6 93 26 3e 97 e7 40 be 42 2d 54 3e
       0.23076336 0.16267285 -0.18838345 0.2072039
000260 0f e4 4f 3c bf 14 da 3d 7b e7 28 3e 3c c9 4a 3e
       0.012688651 0.10648488 0.16494553 0.19803327
000270 fd 5c 3c be 86 90 4f 3e 24 b2 29 be 8a d1 ac 3c
       -0.18394847 0.20269975 -0.16571862 0.02109601
000280 ef 8b 15 be fb a4 e3 bc 2a 70 f3 3a d3 17 f4 bc
       -0.14604162 -0.02778863 0.0018572856 -0.029796517
000290 5e 06 29 bd df eb 9e 3c 5c 9a 71 3e 9d d3 09 3e
       -0.041265838 0.019399581 0.2359404 0.1345963
0002a0 94 9e ce 3d a0 fb c4 3d f5 ac 3f 3e b1 d5 05 bc
       0.1008884 0.09618306 0.18718322 -0.008168624
0002b0 e6 5f 55 3c 3a dc 0b 3d a1 fa 4d be dd 76 3f be
       0.013023352 0.03414557 -0.20115139 -0.18697686
0002c0 ee cc 1c 3c f2 ba 9f bd 39 8d 8a 3b 0c c5 88 bd
       0.009570343 -0.07799329 0.004228261 -0.06678209
0002d0 cb 9b 45 3d f0 02 06 3e 66 f4 b7 bd 9e 98 2b 3e
       0.04824428 0.13087058 -0.08982162 0.16757438
0002e0 cd 27 35 3e 7a 3d 3c be 98 b1 39 be eb cf 36 be
       0.17690964 -0.18382826 -0.18134153 -0.17852752
0002f0 d5 fd f0 bd 7f 0a 99 bd c5 11 0c bd 8d 80 39 bd
       -0.117671646 -0.07472705 -0.034196634 -0.04528861
000300 8b a9 f6 bd 9e 85 bb bd 6d c7 b9 bd c3 e3 4c 3e
       -0.120440565 -0.09156345 -0.090712406 0.20008759
000310 ed 30 d4 bd 95 25 18 be 71 a2 e3 3d 64 ab d8 39
       -0.10360894 -0.14858086 0.111149676 0.00041326426
000320 a7 82 4a 3e 8f b3 27 3e ce f3 53 3e d3 c4 18 be
       0.19776402 0.1637709 0.20698473 -0.14918832
000330 2d db 04 3e ec b5 2d 3e 43 e8 d1 bd 85 08 3f 3e
       0.12974234 0.16963929 -0.102493785 0.18655594
000340 24 df 12 3e dd bd d6 3c 8b 3e d8 3d c0 54 85 bd
       0.14342934 0.02621358 0.10558804 -0.065103054
000350 3c 53 2d be c2 8b e6 3c 3e ba 2a 3d 37 f5 14 be
       -0.16926283 0.028142814 0.04168152 -0.14546667
000360 2c 07 b3 3d f4 06 35 be 6d 0c 4a 3e 7e fe 36 3e
       0.08741602 -0.17678434 0.19731303 0.17870519
000370 8e e7 a1 3d c1 3d aa bd ed e7 af 3d 17 c8 4f 3d
       0.07905494 -0.0831256 0.08589158 0.05072793
000380 fd 8f 4b 3d 62 e5 8f 3d 53 47 05 3e e0 ef 60 bd
       0.049697865 0.07026173 0.1301549 -0.054916263
000390 db 7d 2b bd 21 e5 49 3d 7c cc 69 3c 6e 47 2d 3e
       -0.041868072 0.04929078 0.014269944 0.1692178
0003a0 c2 5f bb bd 48 ab 94 bc f5 81 14 3d 36 1d 8e bd
       -0.09149124 -0.01814808 0.03625675 -0.06939165
0003b0 a6 46 2d 3e c3 48 d9 3c c6 51 69 be 72 b7 83 bc
       0.16921481 0.026523953 -0.227851 -0.016078684
0003c0 ed bf ae bd 3c 8f d7 3c 29 81 c6 bc 3b 31 51 be
       -0.08532701 0.026313417 -0.02423151 -0.20428936
0003d0 e0 86 30 bd 6a dc e8 bc 50 8b 7a bd a5 b9 55 3e
       -0.043097377 -0.028425414 -0.061168015 0.20871599
0003e0 dd 83 4f bd e1 39 18 3e b7 5f 8e 3d f2 67 4b be
       -0.050662864 0.14865829 0.0695185 -0.1986387
0003f0 d0 f6 64 3d 9e ea 39 3e ff c2 1f be 6a 86 1d be
       0.05589944 0.18155906 -0.15601729 -0.15383306

gru_attention.gru.bias_ih_l0 f4 [48]
000000 af 87 44 bd b1 5d 2a be d9 76 0a be 1a cd 51 be
       -0.04798096 -0.16637303 -0.135219 -0.20488396
000010 15 65 2c 3e ed b2 38 bb 23 05 54 be f2 0e 78 3c
       0.16835435 -0.002818282 -0.20705085 0.015140282
000020 82 70 2d 3c a0 f0 11 bd 15 28 c2 3d 23 fb ef 3d
       0.010585906 -0.03562987 0.09480301 0.117178224
000030 df 3e 56 be ef 8b 54 be 24 f6 e3 bc d3 63 69 be
       -0.20922421 -0.20756505 -0.02782733 -0.22791986
000040 86 b2 3f be 5a 58 77 3e 77 76 bd 3c 8b 7e c1 bd
       -0.18720445 0.24154797 0.023127778 -0.09447964
000050 cd 37 88 bd 23 f0 19 be 97 11 49 3e 31 72 d5 bc
       -0.06651268 -0.15033011 0.19635616 -0.026055427
000060 1b 66 c6 bd f7 1a 35 be 34 2c 3f 3e 25 59 b3 bc
       -0.09687444 -0.17686068 0.18669206 -0.021893093
000070 89 d7 19 bc f7 a6 03 bc 6a dd af bd df 38 68 3d
       -0.0093897665 -0.008035413 -0.08587153 0.05669486
000080 fc c2 48 3e a7 40 0b be 08 71 a9 3c f1 e0 48 be
       0.1960563 -0.13598882 0.02068378 -0.19617058
000090 93 a3 c9 bd 97 ac 4d 3e b0 ce 10 3c 2c 98 65 3e
       -0.098456524 0.20085369 0.008838341 0.2242133
0000a0 af 5a 20 bd aa 9c 0f be 7b 95 1d be 78 0f 51 3e
       -0.039148983 -0.14024606 -0.15389054 0.20416057
0000b0 3c 12 33 be 13 b2 f0 3d 7c 06 1e 3d e0 b6 9c 3d
       -0.17487425 0.11752715 0.038580403 0.07652068

gru_attention.gru.bias_hh_l0 f4 [48]
000000 ec 5b da 3d a1 76 90 bd c8 4d 10 3e 2a 4e 58 be
       0.10662064 -0.07053877 0.14092171 -0.21123567
000010 8a e1 a0 bd f5 22 53 3e 3c 9d 99 3d 98 56 33 bd
       -0.07855518 0.20618804 0.07500693 -0.043783754
000020 9f c9 80 bd 51 9c 1f be 4a 90 1f 3e 0e 78 ab bc
       -0.06288456 -0.15586974 0.15582386 -0.02093127
000030 c9 8b 5a 3c 62 69 0c 3d 89 ac 27 3e 0d e4 ff bd
       0.013338991 0.03428019 0.1637441 -0.12494669
000040 fc c5 4a bd f0 2e 44 3e 8c 66 39 3e 09 44 c0 bd
       -0.04950522 0.1915853 0.18105525 -0.09387977
000050 19 22 66 be 6f c0 b2 3d f6 a4 08 3e 71 c1 b0 3d
       -0.22473945 0.0872811 0.13344178 0.08630646
000060 58 c5 5a 3e ab f1 3d be 4c e5 2a 3e cb 54 0f be
       0.21364343 -0.1854922 0.16689032 -0.1399719
000070 6c e8 1f 3e a3 ac 73 3e 18 b4 e2 3d a3 c7 59 3e
       0.15616006 0.23796324 0.110695064 0.21267562
000080 38 05 26 be 70 2d 5a be f7 0f 6f be 99 60 1c 3e
       -0.16212928 -0.21306396 -0.23345934 0.15271224
000090 f4 71 d8 3d c2 b0 50 be e9 ee fe 3d b6 9d 55 3e
       0.1056861 -0.20379928 0.12447912 0.20860943
0000a0 19 12 79 be 32 c6 35 3e 43 27 0d 3d 15 08 c7 3b
       -0.2432331 0.17751387 0.03446127 0.0060739615
0000b0 3b 49 7b 3e 9d 2c 56 3e eb c3 a5 3d db 78 4b 3e
       0.24539654 0.20915456 0.08094009 0.19870321

gru_attention.attention.weight f4 [1, 16]
000000 8f 13 50 3d 9b 6e 34 3d e1 89 2e be 4f e4 43 3c
       0.050799903 0.044050794 -0.17044784 0.0119562885
000010 82 b3 cf bd 90 8b 87 3c 21 98 08 bd 53 6d 4c bd
       -0.1014166 0.01654604 -0.033348206 -0.049908947
000020 7b 47 4c be 5b dd 50 be f9 9b 36 3e a7 1e 6d 3d
       -0.19949143 -0.2039694 0.17832936 0.05789056
000030 81 cf 3d 3e e7 58 89 bb 8b a2 c1 bd 05 e8 54 3c
       0.18536188 -0.004191506 -0.09454831 0.012994771

intra_sector_gat.W f4 [16, 16]
000000 7e 66 83 be 54 11 c0 3e 6b 93 d4 3e b8 7b 0f bf
       -0.25664133 0.3751322 0.4151872 -0.56048155
000010 9b 42 62 3c f7 02 f6 bd d4 cc b4 be 9b d9 8b 3e
       0.013809825 -0.12012284 -0.3531252 0.27314457
000020 9d 7c a4 bd b9 a1 05 3f 74 62 bf be ae 2c 90 3e
       -0.080315806 0.52199894 -0.373798 0.28159088
000030 66 83 04 bf 2d 48 9e be b7 28 56 3d 71 7d f9 3e
       -0.51763 -0.3091444 0.052284922 0.48728517
000040 d3 c9 9b 3e 87 7c fe be a3 a3 89 3d 27 e4 b0 be
       0.30427417 -0.49704382 0.06720664 -0.34549066
000050 21 6f e3 3c 8d bb 02 bf c9 0f 24 be ae 20 cb 3e
       0.027762951 -0.5106743 -0.16021647 0.3967337
000060 b2 c7 0f bf 4a e7 0b bf 76 69 ef 3d 3a 29 ce 3d
       -0.56164086 -0.54649794 0.11690037 0.10066457
000070 2e 25 d0 bd 0b a5 09 3f aa 50 ba be a1 c8 bb be
       -0.101633415 0.5376746 -0.36389667 -0.36676505
000080 6a cb f7 be 5b 3b 02 be 0e ac 0e be db ab c5 3e
       -0.4839738 -0.12717955 -0.13932821 0.38607678
000090 3b 88 ac bc bb b3 36 3e 1f 75 6b be 48 41 e7 3e
       -0.021061053 0.17841999 -0.22993897 0.45166993
0000a0 57 1c f9 3e 6e 78 04 bf cd 81 19 be 1d 45 fe be
       0.48654434 -0.5174626 -0.14990921 -0.49662104
0000b0 fe b2 82 3e 94 dc 03 bf ad 17 8e be 6e c8 18 3f
       0.25527185 -0.5150845 -0.27752438 0.5968083
0000c0 2f d7 1a bf f8 c7 d4 3e a3 00 83 3d 9a 9d fb 3e
       -0.60484594 0.41558814 0.06396606 0.49143678
0000d0 a1 f6 91 be d1 f4 bd 3e 68 d6 c7 3d b6 60 a0 3c
       -0.28508475 0.37100843 0.097576916 0.019577365
0000e0 ca 09 c6 3e 29 53 08 bf 1a 17 f1 be a9 45 15 3f
       0.38679343 -0.5325189 -0.47087938 0.5830942
0000f0 01 4d b2 be 0f 72 d0 be 1e 59 a6 bc 71 76 19 be
       -0.34824374 -0.4071202 -0.020306166 -0.14986588
000100 f9 fe c7 bd d0 7e ce be 53 1e 68 3e 2c 0c 05 bf
       -0.09765429 -0.40331125 0.22667818 -0.519717
000110 e7 48 33 3d 10 ba b5 3e e3 25 0b 3e 5b 40 89 3d
       0.043770697 0.35493517 0.13588671 0.06701728
000120 d2 a2 be 3d e2 a0 2d be 5d 82 f8 bd 0a f3 81 be
       0.09308399 -0.16955903 -0.1213424 -0.25380737
000130 b1 e3 d3 be db 82 a2 be e7 83 18 3f 2b fe d2 bd
       -0.41384652 -0.3174046 0.59576267 -0.10302385
000140 79 70 66 3e c1 e5 d6 3e c8 b9 56 bd 2a bc a8 be
       0.22503842 0.41972163 -0.05242327 -0.32956058
000150 bc 16 d1 be 40 34 60 be 02 de 4c 3e ed df fc be
       -0.40837657 -0.21894932 0.20006564 -0.49389592
000160 8c 0a 97 bd 91 11 5b 3e 57 39 ff 3e 74 cb 35 3e
       -0.073750585 0.2139342 0.49848434 0.17753392
000170 8e 31 f8 3d cf a2 d1 3e 0a e1 91 3e 62 62 50 3e
       0.12118827 0.40944526 0.28492004 0.2035003
000180 40 4e 33 be 5e 6d fe be 4e ae 0f be cf d0 f0 bd
       -0.17510319 -0.49692816 -0.14031336 -0.11758577
000190 23 c3 58 3d a5 df 8a bd 8e ca 65 3e c5 9e d6 3e
       0.052920472 -0.06780938 0.2244055 0.41918007
0001a0 45 e0 80 be f7 49 15 bf a4 ae 9b be 20 6c 97 be
       -0.25171104 -0.58315986 -0.30406678 -0.2957468
0001b0 5c 30 b2 3e 5a 2c cd be bf 91 3e bd 30 fa 02 be
       0.3480252 -0.400729 -0.046525713 -0.12790751
0001c0 cd 8f b7 be e7 8b 8a 3e 3a 89 84 be 1a 50 12 bd
       -0.358519 0.27059862 -0.25885946 -0.035720922
0001d0 3a 6d d8 be 93 ef 76 bd ff 69 8e 3d 27 22 4e bc
       -0.42270833 -0.06028707 0.06953811 -0.012581385
0001e0 db 1c 6e be ac 0b 2f 3e f9 fc 1c be c2 9e ae be
       -0.23253195 0.17094296 -0.15330876 -0.34105498
0001f0 d7 fe e4 be 5a b1 09 be e2 9f 11 bf 31 34 01 3f
       -0.44725677 -0.1344656 -0.56884587 0.5047026
000200 4b ca 82 be 46 0e 79 be e3 73 17 3d 25 cc 03 3e
       -0.25544962 -0.24321851 0.036975753 0.12870844
000210 8c 5b 94 bd 9d 6c d6 3e 32 9f c2 be f7 91 81 3e
       -0.07244024 0.4187974 -0.3801208 0.25306675
000220 ff 78 a0 3c ca 44 ff be ed 62 70 be 0e 58 fc 3d
       0.019588945 -0.4985717 -0.23475237 0.123214826
000230 ec 84 e7 3d f7 08 db 3e 8e f3 c8 3e aa 6b a5 be
       0.1130465 0.42780277 0.39248317 -0.32308704
000240 99 47 73 be 42 ba 02 be 67 96 e6 be b9 47 32 be
       -0.23757781 -0.12766364 -0.45036623 -0.17410173
000250 f8 f3 fe be d9 a5 74 3e e6 21 d0 3e 66 6c 8e 3d
       -0.49795508 0.23891391 0.40650862 0.06954269
000260 8a ab dd be 14 de f0 be b4 b4 6d be cf 74 2e 3e
       -0.43294936 -0.47044432 -0.23213464 0.17036746
000270 85 35 96 3c 11 36 cb 3d 59 4b 14 3f 19 02 8d 3e
       0.018336067 0.09922422 0.5792747 0.27540663
000280 ca a3 00 3e ec d2 08 be de 4f 8f 3e 9b 64 68 3e
       0.1256248 -0.1336171 0.2799062 0.22694628
000290 42 cc 08 bf 84 e2 b9 be c7 3e f2 3b 37 ef 68 3e
       -0.5343667 -0.3630563 0.0073927375 0.22747503
0002a0 15 8d 93 3e 39 90 b5 be 78 b6 17 bf 00 15 ed bc
       0.28818575 -0.35461596 -0.592628 -0.028940678
0002b0 72 03 83 bd 9f 21 34 3e d3 b1 1f be 74 53 ee 3e
       -0.063971415 0.1759095 -0.15595178 0.46548045
0002c0 4e a9 6e 3d f5 fb e2 3e 6c d8 dc be 61 d6 72 3e
       0.05826693 0.44332853 -0.43133867 0.23714592
0002d0 32 fc 98 3d 74 60 9a be 21 ec 90 3e 29 4c 14 bf
       0.074699774 -0.30151713 0.28305152 -0.5792871
0002e0 2b 4e fc 3e 6d 9b 10 3d 2d e0 7a 3d 63 c2 8c 3e
       0.49278387 0.035304476 0.061248947 0.27492055
0002f0 c1 37 51 3d 42 23 82 3e 55 fc c8 3e 72 9c f3 be
       0.05107856 0.25417525 0.39255014 -0.47580296
000300 aa 58 c6 3e af 4a b3 bd dd 7f 08 be d8 d3 04 3e
       0.3873952 -0.08754479 -0.13330026 0.12971437
000310 86 4c f2 3e 80 0a ab be 63 41 c8 be 1c 79 b9 3e
       0.47324008 -0.33406448 -0.39112386 0.36225212
000320 e0 eb 91 be cc c9 52 3e 05 7e c3 bd 4a dc 31 3e
       -0.2850027 0.20584792 -0.09545521 0.1736919
000330 e0 6b ed 3e ce d0 9a be a6 7a 9b be ec 2c 99 3e
       0.46371365 -0.3023743 -0.3036701 0.29917085
000340 db 36 e0 3c d9 56 72 bd 3c d3 06 bf b2 48 04 3f
       0.027369907 -0.059164856 -0.5266607 0.51673424
000350 cd 84 0d bd be 7d e2 bd f0 36 6b be db 87 01 be
       -0.034550477 -0.1105914 -0.22970176 -0.12649481
000360 eb 59 9a 3e 14 86 41 bc fb 22 03 3f 61 64 0e bd
       0.30146727 -0.011811752 0.5122525 -0.034763698
000370 a7 82 ba bd ff cf b2 3e bc 26 d7 bc cf e9 fc bd
       -0.09106951 0.34924313 -0.026263587 -0.12349283
000380 01 66 64 3e 64 c6 f5 3e b7 ef 12 3e e1 9f d5 3e
       0.22304536 0.48002923 0.14349256 0.4172354
000390 a2 08 cb 3e d1 a0 35 3e 65 1d 46 3e 9d fe 5d 3e
       0.39655024 0.17737128 0.1934715 0.21679159
0003a0 1f 1e 82 3d 65 94 00 3f 20 10 11 3f ec 6f 57 3e
       0.063534014 0.5022643 0.5666523 0.21038789
0003b0 03 63 f2 bc 4c 47 0a 3f b2 42 f1 be 38 d9 e3 3e
       -0.029588228 0.5401504 -0.47121197 0.44501662
0003c0 6b 2e a0 3e 47 78 cd 3e c0 4f 2d bd 04 ce e6 be
       0.31285414 0.40130827 -0.042312384 -0.45079052
0003d0 72 69 d9 3e 6c 8a 86 be a8 bc 36 3e 96 95 aa 3e
       0.4246326 -0.26277483 0.17845404 0.3331725
0003e0 41 66 10 bf fb fd 40 3d 33 2f 65 be b0 f3 df 3e
       -0.5640603 0.047117215 -0.22381286 0.43740606
0003f0 62 41 c7 be a0 bd bf 3e c8 56 bd 3e 6f da a7 3e
       -0.3891707 0.3744936 0.3698027 0.3278384

intra_sector_gat.a f4 [32, 1]
000000 0e 8f 10 3f a6 39 ae 3d 0f b8 f5 be 8f 21 c9 3e
       0.56468284 0.08507089 -0.47991988 0.39283416
000010 2e d4 77 3d c1 90 64 3c 1e 5a 11 bf da 6a 02 be
       0.060505085 0.013950528 -0.5677813 -0.12736073
000020 12 20 88 be e7 9b 10 3f 2d d9 c6 3e ac 8c cf 3e
       -0.26586968 0.5648789 0.38837567 0.40537012
000030 7b c7 c8 3e 6d 45 ba be 8d e8 76 be 0b 0b 6d be
       0.39214692 -0.36381093 -0.24112149 -0.23148744
000040 f5 7a 6d be 9f 2f e7 3e 21 75 50 3e 3b 3b ec 3e
       -0.23191436 0.4515352 0.20357181 0.4613894
000050 7f d5 c2 bc 4d 7a 03 bf b7 67 37 be fe 56 cf 3e
       -0.023783443 -0.5135849 -0.17910658 0.40496057
000060 d2 07 b3 3e 92 5d 3f 3e 2f f3 2f be db 5a 04 bf
       0.34966904 0.18688038 -0.17182611 -0.51701134
000070 46 4d 9f be fc 26 9a 3e 31 35 6b be 8d 76 8d 3e
       -0.31113642 0.30107868 -0.2296951 0.2762951

long_term_gru_g.gru.weight_ih_l0 f4 [48, 16]
000000 66 c9 2d 3d 99 00 9d bd ce 38 b0 3b cf 05 ac bc
       0.042428397 -0.076661296 0.0053778654 -0.020998864
000010 93 41 fc bb 6f da 38 bc 86 06 3f be df 92 d6 3c
       -0.0076982467 -0.011282547 -0.18654832 0.02619308
000020 42 7c ce 3c 16 7a 86 bd d5 36 ca 3c b1 5f 97 bd
       0.025205735 -0.06566255 0.02468435 -0.073912986
000030 d5 33 cf bd ff aa dc bd 4d f9 0f bd bd 5b 9c bc
       -0.10117308 -0.107748024 -0.03514986 -0.019086713
000040 3b 66 1f bd 7b fa d2 3d 16 47 1e be ae 34 e8 3c
       -0.038915854 0.103016816 -0.15456805 0.028345432
000050 61 de 40 3c 8e 95 57 3d 3c 8e 69 3e a8 88 1c 3e
       0.011771769 0.05263286 0.22808164 0.15286505
000060 b9 99 f1 bd b5 7d 3f be 70 bd 85 bd 35 a1 ea bd
       -0.117968984 -0.18700297 -0.06530273 -0.11456529
000070 ae a2 a1 3d 7c 33 98 bc de c1 2e 3e 7e 74 a9 3d
       0.07892357 -0.018579237 0.17066142 0.08274172
000080 eb e2 29 bd a1 e6 6b 3b 40 4e 9d 3d 50 e2 1c bd
       -0.04147617 0.003599562 0.07680941 -0.038301766
000090 8e 40 4e 3e 36 32 54 be a9 c9 e2 3d a1 c6 10 be
       0.20141813 -0.20722279 0.1107362 -0.14138271
0000a0 9d 02 4e be 32 06 68 bd cb 6d b3 3d aa 6c 17 3e
       -0.20118184 -0.056646533 0.08761176 0.14787546
0000b0 f2 96 70 3d 00 ec 34 bd ce 84 0f bd 66 4a c1 bd
       0.058737703 -0.04417038 -0.03503876 -0.094380185
0000c0 bf 64 90 bc d0 e6 a2 bc 43 93 58 3e b7 56 0a 3e
       -0.017626164 -0.01988545 0.21149926 0.13509642
0000d0 44 a1 45 be eb 46 18 bc 9e 47 24 be 46 d2 fc bc
       -0.19299799 -0.009294252 -0.16042945 -0.030861985
0000e0 71 e8 32 be e6 ca 77 3d 0f 54 3f be c7 30 60 3e
       -0.17471482 0.060496233 -0.1868441 0.21893607
0000f0 bd 06 2f 3e 62 05 3e be d5 ec 72 be 18 fb f5 3b
       0.17092414 -0.18556741 -0.23723157 0.0075067393
000100 44 2f 59 bd 48 3d 6f 3d 72 7f 01 be dc e3 b5 3d
       -0.05302359 0.05840805 -0.12646273 0.08881351
000110 3e e9 48 be bd ea 0f be d1 fd 17 be 6b 3d 07 3e
       -0.19620225 -0.1405439 -0.14842917 0.13207023
000120 28 8e d0 bb a7 af 6a be fa ad 13 be 83 a5 e9 bd
       -0.0063646026 -0.22918569 -0.14421836 -0.11408522
000130 5f f8 4e be 55 cf 91 3b 60 e3 9d 3d c7 3e 66 bd
       -0.20211934 0.0044497647 0.07709384 -0.056212213
000140 b8 37 bb bd 80 31 4c bb 22 b2 29 be 97 54 02 be
       -0.09141487 -0.0031157434 -0.16571859 -0.12727581
000150 6b 0f 89 ba 86 55 51 3e 99 49 99 bd d0 3a e9 3d
       -0.0010456865 0.20442781 -0.07484741 0.11388171
000160 48 f8 c4 bd 39 fb 62 bd b9 76 41 be e6 23 3d 3e
       -0.096176684 -0.055415366 -0.18892945 0.18470725
000170 df 22 5e 3e 71 86 08 3b dc eb 1e 3e 92 0a 3e 3e
       0.2169299 0.0020832086 0.1551966 0.1855872
000180 3b e1 f5 3d b8 0c 02 3e 5a 7f 46 be 48 7b 66 be
       0.1200585 0.12700164 -0.19384518 -0.22507966
000190 9b 1e 43 be ca 35 71 3d 17 4b 5c be 02 11 38 be
       -0.19054644 0.058889188 -0.2151302 -0.17975238
0001a0 8c 1e d1 bd 49 c1 60 be 83 cd 9e bc 64 9f a9 3c
       -0.102109045 -0.21948732 -0.019385105 0.020705886
0001b0 e5 e0 0c be 0e d0 15 3e 32 a5 d8 bd c6 9f 82 bd
       -0.13757665 0.14630148 -0.105783835 -0.063781306
0001c0 ca 16 40 3e 5e 20 59 3e 54 b1 15 bd ff 1f 23 be
       0.18758693 0.21203753 -0.036546066 -0.15930174
0001d0 b5 7e f7 bd 8f 0b 2d 3d 50 a4 14 3e a5 17 ee 3d
       -0.12084714 0.04224735 0.14515805 0.116256036
0001e0 d1 7d dc bd 30 ce 5f be 4a 75 3c be 62 cc 81 bd
       -0.10766185 -0.21855998 -0.18404117 -0.06337811
0001f0 35 91 6d 3b 87 d0 d1 bd b6 ac 35 be 06 89 a0 3c
       0.003624988 -0.102448516 -0.17741665 0.019596588
000200 d6 a4 49 be 9e 37 40 be 52 f1 28 be db 14 8d bd
       -0.19691786 -0.18771216 -0.16498306 -0.068887435
000210 e0 76 5a 3e 99 bc a4 3d 29 cd f8 bc 07 56 57 3d
       0.2133441 0.08043785 -0.030371265 0.052572276
000220 f1 c5 d7 3d 10 07 95 bb e5 68 58 be 34 90 1c be
       0.10535801 -0.004547961 -0.21133764 -0.15289384
000230 a6 7e 25 be 15 a3 88 bc 7d a0 6d be 5a d0 1f bd
       -0.16161594 -0.016679326 -0.23205753 -0.03901706
000240 84 58 99 bd 75 c2 62 3e 1d f9 a3 3d fa 01 ca 3d
       -0.07487586 0.22144492 0.08006499 0.09863658
000250 43 e8 8f 3c 2f 8c 89 bd 8f 8f 68 3d c7 b9 11 be
       0.017566806 -0.06716191 0.056777533 -0.14231025
000260 2a 7a b8 bd 9a 5b 0f bd d5 4d d9 bc 29 2b 14 be
       -0.09007676 -0.034999467 -0.026526371 -0.1446959
000270 e0 b5 91 3d ed 9b 3a 3e 6c 9b b8 bd 6f 7a 59 3d
       0.07114768 0.18223543 -0.09014019 0.053095277
000280 a9 c1 8d bc db 96 96 bc bb 51 ec 3c 57 a7 37 3e
       -0.017304258 -0.01838248 0.028847566 0.17934929
000290 95 83 27 3d 9b e4 28 be e2 0a ce bd b7 bc 02 3e
       0.04089697 -0.16493456 -0.100606695 0.12767301
0002a0 6d 8d 90 3d 43 68 c5 bb d7 43 43 bd c4 3b c7 bd
       0.07058225 -0.006024392 -0.04767212 -0.09728196
0002b0 86 b7 9a bd 5d a7 15 be e6 bb f4 3c 8c 4d 78 3d
       -0.075545356 -0.14614625 0.029874753 0.06062083
0002c0 2e b2 42 3e da cf 7d bd 68 be 62 3c 28 7c fb 3d
       0.19013283 -0.0619658 0.013839342 0.1227954
0002d0 a5 08 e8 3d 57 54 3b 3b 18 4d 84 3d dc d4 9a 3c
       0.11329774 0.0028584206 0.06460017 0.018900327
0002e0 69 e0 42 be 92 e3 02 3c 51 26 23 bd 27 1a 3e 3e
       -0.19030918 0.007988827 -0.039831463 0.18564664
0002f0 33 50 46 3e 92 15 28 3d d4 04 4a 3e 09 58 fc bd
       0.19366531 0.041036196 0.19728404 -0.12321479
000300 c7 c5 5d 3e 24 6f 57 3e 4d 5d d7 bc c7 f4 3c be
       0.21657477 0.2103849 -0.026289606 -0.1845275
000310 e2 fe 99 bd 3a 64 53 bd b8 95 b6 3b 55 d8 63 be
       -0.07519318 -0.051609255 0.005572047 -0.22250493
000320 e7 66 fa 3c ed f5 bc bd 1e a0 17 bd c1 ef dd bd
       0.030566646 -0.09226594 -0.037017934 -0.10836745
000330 43 dd 3d bd 92 b9 5a be ee 9f da bd 21 2e 89 3c
       -0.04635359 -0.21359852 -0.106750354 0.016745629
000340 02 96 27 3e 47 9b 60 3e 1b 3e 09 be 64 cc bc 3d
       0.16365817 0.21934234 -0.13402598 0.09218672
000350 b2 27 09 be 0f 8e 4a be e9 db 91 bc ce 59 06 be
       -0.13394049 -0.19780754 -0.017805057 -0.13120195
000360 9a 0c 40 be ee c0 53 be 6f 72 27 be 6d c4 2d 3e
       -0.18754807 -0.20679066 -0.16352247 0.16969462
000370 96 34 00 3e 62 35 e5 bd 61 00 2c be 2a 13 3a be
       0.1252006 -0.111918226 -0.1679702 -0.18171373
000380 7e a3 0a be 10 8b d1 bd 03 15 c9 3d fc 41 6f 3d
       -0.1353893 -0.10231602 0.09818461 0.058412537
000390 78 b3 b3 bd 09 59 04 3e e5 7d 16 be 55 1f 38 be
       -0.08774465 0.12924589 -0.14696462 -0.17980702
0003a0 9a 00 02 3d dc fe fe bd 48 2e 51 3d d2 7f 28 3e
       0.031738855 -0.12450954 0.051069528 0.1645501
0003b0 45 21 c2 bd 3a 26 26 be 19 a3 a9 3d f6 a8 49 be
       -0.09479002 -0.1622552 0.082830615 -0.1969336
0003c0 b0 c9 5b 3e 8f 1a e2 bd 17 69 b8 3d 42 e1 37 be
       0.21463656 -0.11040222 0.09004419 -0.17957023
0003d0 fb f9 2f be 47 bc 3e 3d 40 7d ca 3d d3 3e 34 3e
       -0.17185204 0.046566274 0.09887171 0.1760209
0003e0 f3 80 48 3e 66 56 69 bb 30 8f 93 bb 94 0e 61 3d
       0.1958044 -0.0035604476 -0.0045031533 0.054945543
0003f0 83 d3 68 bd 26 46 01 3d 72 e5 58 be 7a 7f 4e be
       -0.05684234 0.03156104 -0.21181276 -0.20165816

long_term_gru_g.gru.weight_hh_l0 f4 [48, 16]
000000 80 ec d1 a5 5c e2 b5 a5 e5 f1 0c 39 4e 00 b8 2d
       -3.641598e-16 -3.1551882e-16 0.00013441553 2.0918513e-11
000010 51 81 a5 3a a3 0f 69 39 51 e6 01 b7 8c 08 06 36
       0.001262704 0.00022226437 -7.742624e-06 1.997253e-06
000020 d6 80 46 b0 36 53 0d b8 23 6a 91 af 34 1d 0b b1
       -7.221507e-10 -3.3694516e-05 -2.645076e-10 -2.0243762e-09
000030 7f 7c 57 b5 84 ef 13 a4 be ef 1a 26 50 f9 4b 28
       -8.0274907e-07 -3.207842e-17 5.3754394e-16 1.1322825e-14
000040 1f 18 02 b7 78 4c 43 33 f6 52 06 3b d6 e8 81 a7
       -7.75422e-06 4.5471523e-08 0.0020496226 -3.6057134e-15
000050 3a b4 5d b7 88 dd 85 a5 b5 8b 0a ba 8d 14 79 b9
       -1.3214589e-05 -2.3221938e-16 -0.00052851 -0.00023754146
000060 20 69 ed a9 4d 4e 4d 36 31 71 e4 b8 fe 3f 82 a6
       -1.05431506e-13 3.0592958e-06 -0.00010892971 -9.037907e-16
000070 09 32 07 b1 e0 88 7f ba f9 0d 95 a7 94 7b 6c 25
       -1.9673527e-09 -0.0009747874 -4.1370957e-15 2.0511607e-16
000080 a5 22 b8 26 e5 69 63 38 eb 3b 62 ab f6 cb 25 36
       1.2776955e-15 5.421964e-05 -8.037448e-13 2.4705637e-06
000090 95 51 6e 2b 29 30 4e 26 ff 47 0a 33 e3 c6 90 b6
       8.4667803e-13 7.1535876e-16 3.219611e-08 -4.314688e-06
0000a0 6d 44 bf af 78 5e 34 af 6c e9 7c 2c 06 f8 50 25
       -3.4791317e-10 -1.6404467e-10 3.594093e-12 1.8125158e-16
0000b0 52 66 be b8 62 eb 15 ba dc b4 0f a3 15 3e 99 26
       -9.078965e-05 -0.00057189737 -7.790344e-18 1.0633335e-15
0000c0 b8 48 87 26 a3 fd 3f a9 85 75 fe b8 cf ed 6e b3
       9.387217e-16 -4.2630514e-14 -0.000121335535 -5.562998e-08
0000d0 ad fb ac 37 7f 7a d8 ba 34 82 cd 26 6a cb f4 38
       2.0621193e-05 -0.0016515999 1.4260024e-15 0.000116727155
0000e0 c1 bb a6 38 ff 56 70 29 d7 26 65 ba a5 2d 53 26
       7.950469e-05 5.3366162e-14 -0.00087414443 7.326719e-16
0000f0 44 bf 56 2a 05 ce 1d a7 3c c6 e4 38 a3 67 a1 a9
       1.9073377e-13 -2.189981e-15 0.00010908811 -7.1678144e-14
000100 75 1f 23 b8 c8 f4 56 b9 f2 a4 65 36 12 6b 84 25
       -3.8891525e-05 -0.00020499818 3.421967e-06 2.2970904e-16
000110 04 2d f7 3a 98 90 00 a6 e9 e3 8f ba c3 ea 0a 27
       0.001885802 -4.460488e-16 -0.0010977957 1.9278612e-15
000120 d7 f3 6f 3a 76 63 17 36 5e 86 db a6 45 25 ac b8
       0.00091534614 2.2558647e-06 -1.5232598e-15 -8.208541e-05
000130 06 5c 80 b5 07 4a 80 37 c2 7a 3f b7 66 dd 38 27
       -9.563526e-07 1.529326e-05 -1.1413069e-05 2.565515e-15
000140 a0 47 7f a6 66 ec ee 29 0c 97 94 23 85 39 d2 b8
       -8.8567967e-16 1.0610332e-13 1.6110163e-17 -0.00010024294
000150 58 33 a8 2a ab a0 10 3a e6 58 74 25 d0 57 1e b0
       2.9878422e-13 0.00055171055 2.1193746e-16 -5.7604854e-10
000160 0f b5 44 30 51 23 33 39 fc 03 19 27 f5 41 dd a9
       7.1561684e-10 0.00017083927 2.1235175e-15 -9.825813e-14
000170 e1 f6 58 26 3d b8 a6 2a 41 18 a5 2b b8 b3 5a a6
       7.527464e-16 2.9615365e-13 1.1730687e-12 -7.587751e-16
000180 16 a6 77 25 76 cb 52 b4 87 78 3c 29 b1 85 d0 ba
       2.1480107e-16 -1.9631793e-07 4.1848927e-14 -0.0015908984
000190 14 53 eb 35 2b 45 89 3a 63 7c 47 a5 f2 19 55 27
       1.7533043e-06 0.0010472884 -1.7302642e-16 2.9573753e-15
0001a0 1f 3b 72 ba bf 92 3e ae 5f 59 8b 39 b6 16 e7 39
       -0.0009240377 -4.3331335e-11 0.00026578733 0.00044076674
0001b0 71 bd cd 25 8f 10 e9 29 5d b4 bb 3a 7f f7 b4 a6
       3.5690202e-16 1.0350151e-13 0.001432072 -1.2557093e-15
0001c0 f4 cc b9 2f 6b 24 ac ba 35 6a 63 2d 0f 1d 8c 2b
       3.3796932e-10 -0.0013133412 1.2927039e-11 9.955664e-13
0001d0 2b 2d 31 3a c8 18 d9 2f ec b6 4a 2b 3e 70 d7 a9
       0.0006758745 3.9489678e-10 7.201867e-13 -9.567389e-14
0001e0 0c 08 7b a7 e6 cb ec 34 e8 4f 74 ba 20 21 81 38
       -3.483761e-15 4.410678e-07 -0.0009319768 6.157369e-05
0001f0 24 1e a7 2c fc 36 49 b5 bd 91 8c af 7c 4e fa a7
       4.7497718e-12 -7.495835e-07 -2.5569405e-10 -6.947403e-15
000200 40 03 e1 a2 96 93 2d 28 db b7 e4 ba da 25 e5 a5
       -6.0989813e-18 9.635432e-15 -0.0017449813 -3.9750817e-16
000210 d2 fd 0a b0 a1 8b 4c a6 96 fd 32 30 77 3c 99 24
       -5.056481e-10 -7.096595e-16 6.511639e-10 6.6455604e-17
000220 64 54 7f a6 11 59 87 27 76 72 07 b9 09 18 99 b2
       -8.858527e-16 3.7566593e-15 -0.00012917243 -1.7822474e-08
000230 06 f4 67 26 ba 15 a6 aa 13 6e 32 3a 3c d0 ae a4
       8.047494e-16 -2.95026e-13 0.00068065635 -7.5813234e-17
000240 b0 08 a6 aa b4 c7 99 34 21 de 3b ad 0c 23 e3 a9
       -2.9493552e-13 2.8643774e-07 -1.0679042e-11 -1.0086905e-13
000250 1e 8c 23 37 a9 70 22 38 61 66 c2 a7 19 09 01 b9
       9.748181e-06 3.8728733e-05 -5.3956816e-15 -0.00012305788
000260 a8 ac 44 34 ad fb 9a b9 cd cd 59 b0 a9 4e 38 a5
       1.8316734e-07 -0.00029560682 -7.92366e-10 -1.5986107e-16
000270 c0 3d bf 28 02 ae db ba 1f 7c 54 2a b4 36 71 ac
       2.123204e-14 -0.0016760232 1.8872446e-13 -3.4278526e-12
000280 b8 f6 f3 38 12 a5 9a a8 10 c6 37 3a 15 be 95 a7
       0.00011633098 -1.7169022e-14 0.00070104096 -4.1561895e-15
000290 fc f5 95 b5 8d e7 c0 ac 0a 27 c3 a5 9a 87 e4 a6
       -1.1172956e-06 -5.4826755e-12 -3.3853562e-16 -1.5857433e-15
0002a0 f6 0d cf af 91 cf 9c b3 46 2c 5e a8 59 ad fe ba
       -3.7663e-10 -7.302072e-08 -1.2333076e-14 -0.0019430324
0002b0 c0 d9 84 39 23 30 0d 27 1b 5a 29 b9 cd ac 84 a5
       0.00025339238 1.9593776e-15 -0.00016150663 -2.3015444e-16
0002c0 2c bd a6 a2 22 c6 f8 a7 14 05 5a 26 9f 17 53 36
       -4.5194684e-18 -6.9048644e-15 7.5640826e-16 3.14552e-06
0002d0 26 ce d5 28 31 b9 24 a7 80 5e c9 27 04 20 bb 26
       2.3737153e-14 -2.2859964e-15 5.5891164e-15 1.2984409e-15
0002e0 38 c2 51 39 10 30 d1 a4 c3 d1 f2 38 43 8a 21 39
       0.00020004145 -9.072072e-17 0.000115785304 0.00015405663
0002f0 18 e9 2f b1 2d a1 38 25 96 91 b0 2e 0e ec b5 ac
       -2.559835e-09 1.6014064e-16 8.0294146e-11 -5.1705367e-12
000300 bb 51 54 2a 76 88 f6 a8 e6 04 c9 25 be c8 04 b7
       1.8857738e-13 -2.7370667e-14 3.487126e-16 -7.914552e-06
000310 b9 96 54 b7 cd bd df ba 8e 60 eb b3 de a6 4d a7
       -1.2671278e-05 -0.0017070115 -1.09606034e-07 -2.8539924e-15
000320 2e 60 5e a4 61 de ae 38 4c 16 1e ba d0 eb 5e a4
       -4.8220044e-17 8.338388e-05 -0.0006030544 -4.8338317e-17
000330 a2 b1 42 ba bf 2e e9 a3 6d 1a 7a aa 1d 97 43 ba
       -0.0007426982 -2.5281708e-17 -2.2213629e-13 -0.00074611773
000340 53 b6 25 3a 55 f9 4d 29 2d 9e 2b 3a c5 23 c5 26
       0.0006321419 4.5735405e-14 0.00065467024 1.3679316e-15
000350 fe 80 41 34 c4 82 60 3a 1d 61 81 2a 6b c3 80 27
       1.8021453e-07 0.00085644075 2.298239e-13 3.573901e-15
000360 d7 89 a2 31 be d6 ea b9 5b b7 33 35 77 dd 4b b6
       4.730491e-09 -0.00044791953 6.6949514e-07 -3.0378267e-06
000370 90 2d 8b 3a c5 4f 00 b7 cb cd 95 2c e6 77 9b 38
       0.0010618437 -7.647967e-06 4.2576823e-12 7.413309e-05
000380 9b 36 26 ad 34 0c ee 39 7d 6c a3 37 43 3a 6d 3a
       -9.448132e-12 0.0004540399 1.9481633e-05 0.0009049514
000390 c7 b7 d0 ba c6 27 3f 24 e1 16 b7 a9 78 93 cf a7
       -0.001592391 4.1450212e-17 -8.1308014e-14 -5.7613927e-15
0003a0 55 39 b9 b8 3b b7 86 ac bb 6e 4b 25 ec 4f c8 2e
       -8.832166e-05 -3.8288517e-12 1.764496e-16 9.109144e-11
0003b0 cd 7f 49 ba 25 2b 83 31 db f4 9b 2a 65 23 83 38
       -0.00076865853 3.8175068e-09 2.7703434e-13 6.2531595e-05
0003c0 e6 6a d7 26 9c 41 cd a8 ce 19 1f 26 64 b2 1b a6
       1.4947597e-15 -2.2788026e-14 5.519918e-16 -5.401819e-16
0003d0 da 35 a5 a9 20 77 05 ba af 46 50 36 d7 60 58 b6
       -7.336814e-14 -0.00050912984 3.1035559e-06 -3.2242876e-06
0003e0 6d 07 e5 34 4a 0d da a9 40 d6 3f 36 db a3 ed 39
       4.2659977e-07 -9.68345e-14 2.8585928e-06 0.00045326244
0003f0 49 a1 d6 b5 31 3b 99 39 33 c7 e1 a4 7b 58 db b8
       -1.5991183e-06 0.00029226535 -9.791565e-17 -0.000104592145

long_term_gru_g.gru.bias_ih_l0 f4 [48]
000000 bc 9c 1b 3d a9 c9 41 3e a3 61 96 bc fc 07 f9 3c
       0.03799127 0.18924583 -0.018357104 0.030399315
000010 f4 14 9d 3c 04 b7 8c 3a 19 4f 17 3e db f4 04 3e
       0.01917503 0.0010735695 0.14776267 0.1298403
000020 d2 1a 0b be ca 2f 6b 3e 47 a5 07 3e dd f9 09 bd
       -0.1358445 0.22967449 0.13246642 -0.033685554
000030 90 9c 66 3e c1 5d 75 3c d9 a9 1e 3e 22 b0 53 be
       0.22520661 0.014975966 0.15494479 -0.20672658
000040 e6 d3 67 3e 1b b1 7a 3e 2f 05 2f be 24 b9 5b be
       0.22639427 0.24481623 -0.17091821 -0.21457344
000050 29 b2 0d bd 99 2e 16 be f4 69 aa 3d e6 e3 0b 3e
       -0.034593735 -0.14666213 0.0832099 0.13661155
000060 89 aa 05 bd 99 5c 37 3e 83 54 37 3c cb c4 ea bc
       -0.032633338 0.17906417 0.011189583 -0.028658291
000070 76 92 61 be 61 72 a9 3d b4 af 57 be d6 ad 56 3c
       -0.22028527 0.08273769 -0.21063119 0.013102969
000080 92 01 2b 3d 52 c3 07 be 77 98 a0 3d ea bc 5d 3d
       0.041749544 -0.13258103 0.0784158 0.05413524
000090 ac 09 2a 3e 05 c0 24 3e 52 7f 4c be e6 50 40 be
       0.16605252 0.16088875 -0.19970444 -0.1878086
0000a0 f6 f7 af bd 28 a2 37 be bf 63 b0 3d 4a a7 22 be
       -0.08592217 -0.17932951 0.08612775 -0.15884128
0000b0 62 8e 4d be 2f 32 91 3d eb 4e 19 3e 96 4d 95 bd
       -0.20073846 0.0708965 0.14971511 -0.07290189

long_term_gru_g.gru.bias_hh_l0 f4 [48]
000000 78 e6 73 be 11 02 e4 3c 31 d9 fa 3d 20 11 49 3e
       -0.23818386 0.027833017 0.12248457 0.19635439
000010 7e 8f c6 3c 18 e7 2c 3e 01 68 5c be e8 23 6c 3e
       0.024238344 0.1688503 -0.2152405 0.23060572
000020 2a 90 26 be 9d 08 29 be 9f 33 2b 3e 61 6f 4c bd
       -0.16265932 -0.16507192 0.1671891 -0.049910907
000030 ac 9f 26 3e 0d 0f 2e be 7c be 3d 3e fc 53 6b 3e
       0.16271847 -0.16997929 0.18529695 0.22981256
000040 d9 13 a6 3d bb 04 58 3e 9b a5 26 be c9 a0 40 bd
       0.081092544 0.21095555 -0.16274111 -0.047028337
000050 e3 ef e5 3d 1a ae 16 3e 5b 34 ed bd bc 4c 3c 3e
       0.112273954 0.14714852 -0.11582252 0.18388647
000060 9b d6 a9 bd b2 a5 02 be 7d 4d 4d 3d 11 bd 1a be
       -0.08292886 -0.1275852 0.050122727 -0.15111186
000070 ce ef 71 be f0 c0 b0 3d b9 f1 c4 3d 08 35 e1 3d
       -0.23626634 0.0863055 0.096164174 0.10996443
000080 4f ca dc bc 76 c3 32 be 6d 9e 48 be 44 5f 7b 3e
       -0.026951937 -0.17457375 -0.19591685 0.2454806
000090 e9 82 5e be dd 89 a3 3d 42 71 50 3e c0 a7 3e 3e
       -0.21729626 0.0798528 0.20355704 0.18618679
0000a0 da ba 1b be 3f 92 a3 bd 3d 19 45 be 7c 18 26 3e
       -0.15207997 -0.079868786 -0.19247909 0.16220278
0000b0 24 d0 78 be 9e 06 6d be 0e 37 2b be dd 6a 4a 3e
       -0.2429815 -0.23147056 -0.1672022 0.19767328

long_term_gru_g.attention.weight f4 [1, 16]
000000 89 1f cc 36 74 52 47 37 ce 73 e9 38 d6 b7 e5 2c
       6.083345e-06 1.1880522e-05 0.00011131876 6.5289813e-12
000010 e9 5d d2 b3 3a da ef b5 27 d1 c9 29 8d 83 8f 2b
       -9.795969e-08 -1.78704e-06 8.962475e-14 1.0197274e-12
000020 49 b5 2f a7 f7 54 f2 b8 1c 16 06 26 58 ca 2d b2
       -2.4384404e-15 -0.00011555285 4.6520553e-16 -1.0115933e-08
000030 a1 b4 30 a7 df 5c 88 a6 4c 45 45 a5 5a 45 19 ba
       -2.4522826e-15 -9.462068e-16 -1.7110505e-16 -0.0005846821

long_term_gru_a.gru.weight_ih_l0 f4 [48, 16]
000000 77 1c ae bd 71 61 6b 3d f1 f7 f7 3d e9 91 b6 3d
       -0.08501523 0.057465974 0.12107838 0.08914549
000010 12 bc f6 3d 70 08 b5 3d ca 41 11 3e 31 48 93 3d
       0.1204759 0.088395 0.14185253 0.07191504
000020 2f d6 a2 3d 4d 0a c0 bd cb eb f5 bd 6b 42 a7 3d
       0.079510085 -0.09376965 -0.120078646 0.08166965
000030 57 f5 71 3d 1f a1 7d 3c 42 19 1c be 52 c4 ab 3d
       0.059071865 0.015480309 -0.1524401 0.083870545
000040 bc c9 28 3e 1b d9 9a bc b8 6f 3d 3d 6b fb fe 3d
       0.16483206 -0.018902352 0.04624912 0.12450298
000050 f8 ff 6a be 77 83 74 bd c5 97 a0 bd 52 7b 0e be
       -0.22949207 -0.059695687 -0.07841448 -0.1391423
000060 48 05 19 3e 6f 32 6b 3e ec d8 1c 3d 46 b6 07 3e
       0.14943421 0.22968458 0.03829281 0.13253126
000070 2c 8b 2a be f9 fb 29 3d 1b 82 11 bd 86 75 0d be
       -0.16654652 0.041500065 -0.03552447 -0.13814363
000080 46 8a e2 3c 00 4e 99 3d 85 7d 45 ba 05 51 b3 3d
       0.027653825 0.074855804 -0.00075336575 0.087556876
000090 31 e7 f0 3d 05 72 5d 3e bf 0d 13 bc 7f c0 47 3c
       0.11762846 0.21625526 -0.008975445 0.012191891
0000a0 61 c8 0f bc fc 23 c8 3c 3b d3 20 be d1 db 09 bd
       -0.008775801 0.024431221 -0.15705578 -0.0336569
0000b0 bf 17 46 be da e3 1c be 9c ca 59 be 4f f3 38 3e
       -0.19344996 -0.15321293 -0.21268696 0.18061565
0000c0 cd 1c 07 be dc 19 e3 bc 64 2d ae 3c 73 29 f4 3d
       -0.1319458 -0.027722292 0.021261878 0.11921968
0000d0 78 35 21 3e 71 0e 10 be ce 1b 4d 3e e0 65 58 be
       0.15743053 -0.14068009 0.20030138 -0.21132612
0000e0 58 c9 5f 3d 94 b0 3a 3e d6 9c 4f 3e ae c4 18 bd
       0.054635376 0.18231422 0.20274672 -0.037296943
0000f0 2e 89 07 be 08 12 ce 3d 67 1b 14 3e 0f 89 94 bd
       -0.13235924 0.10062033 0.14463578 -0.07252704
000100 d8 9b 26 bd 0b 36 08 be 3d d6 ca 3d bb 2a 11 3d
       -0.040675968 -0.13301866 0.09904144 0.03544114
000110 1c 6d 0a 3e a4 69 a4 bd e5 5f 77 be f5 32 f8 bd
       0.13518184 -0.08027962 -0.24157675 -0.12119094
000120 06 38 4b be 14 5e 5f bd a9 a9 d5 3d a8 77 55 be
       -0.1984559 -0.05453308 0.10432751 -0.20846426
000130 e6 ce a0 bb 91 c8 78 be 97 fd 3e be 98 75 29 be
       -0.0049074767 -0.2429526 -0.18651424 -0.16548765
000140 9f 7c b6 bd b8 f9 0c be 26 25 af 3c 94 a0 08 3e
       -0.08910488 -0.13767135 0.021380018 0.13342506
000150 b9 31 3b 3e 60 34 a4 3d f5 82 a5 bb b2 65 23 bd
       0.18280686 0.08017802 -0.0050510117 -0.039891906
000160 ee 6e 31 3e b5 3e 13 be af 71 16 3e 69 ef 67 be
       0.17327473 -0.1437939 0.14691804 -0.22649921
000170 34 b2 3a be 0b 03 90 3d b1 26 ce bd 54 c8 36 3d
       -0.18232042 0.070318304 -0.100659736 0.04462464
000180 b4 06 3f 3e 1e ba d9 3d 64 5c 54 3e b7 71 85 bd
       0.18654901 0.10631202 0.20738369 -0.0651583
000190 6e 9b f3 bd 0b 3f 4d bd 4b cd 10 bd 37 1c df bd
       -0.1189488 -0.05010895 -0.035352033 -0.108940534
0001a0 d4 6b b6 3b 44 d7 62 3e 90 a6 02 be 7c d5 00 3e
       0.0055670533 0.2215243 -0.12758851 0.12581438
0001b0 b4 ce cb 3d 2f 9d f7 3d b8 0a 87 3d 6a 9c b3 bd
       0.09951535 0.12090527 0.06593841 -0.08770068
0001c0 95 88 e7 3d 94 5a e3 bd 8b 0c 09 be 09 1c 6d 3e
       0.11305348 -0.11101261 -0.13383691 0.23155226
0001d0 47 9c 49 3e 70 bf 31 be bf 92 48 3e 64 98 59 3d
       0.19688521 -0.17358184 0.19587229 0.053123847
0001e0 1d 78 3d 3d f0 b8 63 3e e5 af 58 bc 53 32 a0 bd
       0.046257127 0.22238517 -0.01322553 -0.078220986
0001f0 bd fa 20 3e 2c 5f 64 bd 02 79 66 bd d3 02 c3 bd
       0.15720649 -0.055754825 -0.056267746 -0.09522023
000200 4b 2f 54 3e 40 f0 78 3c 3c 10 5d bc d4 5d 23 be
       0.20721166 0.015193999 -0.01349264 -0.15953761
000210 e5 8c e2 3c da d0 f9 bd 11 e1 56 3d 8e e1 ec bd
       0.027655074 -0.121980384 0.052460734 -0.11566459
000220 39 62 c3 bb 12 cc 58 bd 3d 32 94 bd a8 e2 40 3e
       -0.005962637 -0.05292899 -0.07236145 0.18836462
000230 55 66 7c 3d c1 74 1c 3e 17 49 df bd 9b 6f a5 3d
       0.06162103 0.15278913 -0.10902613 0.08077928
000240 e7 84 9e 3d 91 2c de 3d 0d 45 a5 bd e5 38 36 bd
       0.07740193 0.10848344 -0.08069811 -0.044487853
000250 9b 45 40 be 8b de fe 3d e8 cc 2f 3e 34 7c d6 3d
       -0.18776552 0.124447905 0.1716801 0.104729086
000260 62 31 f9 3d 49 ac 0e 3e 0f 9f 62 3e d2 66 a7 3d
       0.12167622 0.13932909 0.22130989 0.08173908
000270 2e 9d 9c 3d a4 2b 96 3d 0d 7a e7 bd e8 03 6e 3d
       0.07647167 0.073325425 -0.11302576 0.058109194
000280 0b fb be 3d f6 af 3f be 8d 0d 9b bd 20 6c e5 bd
       0.093252264 -0.18719468 -0.07570944 -0.11202264
000290 6a 43 2d be 45 3f 29 3e 50 9f 50 3e 4a f2 b0 bc
       -0.16920248 0.16528042 0.20373273 -0.021599907
0002a0 49 64 94 3d 2a 67 6f bd ea 93 5b 3d db 73 20 bd
       0.072456904 -0.058447994 0.05360786 -0.03917299
0002b0 32 ad 03 be b7 d8 e4 bd 40 18 7b 3e 9f 69 d3 3c
       -0.12859038 -0.111741476 0.2452097 0.0258072
0002c0 42 9a f0 bd 5a 60 21 3d 10 aa 78 be 39 e8 f5 3c
       -0.11748172 0.03939853 -0.24283624 0.030017959
0002d0 44 fc 31 3e 46 65 f0 3b dc 88 86 3d 4d 8b 5c be
       0.17381388 0.0073362915 0.065690726 -0.21537514
0002e0 8a 49 37 bd ba 85 fb 3d ae b4 38 be 0d 8d f5 bd
       -0.044747867 0.12281366 -0.18037674 -0.11989794
0002f0 ca 5d 28 3e b1 a7 8b 3d f4 99 ed 3d b8 65 6a be
       0.16442028 0.06819094 0.1160163 -0.22890365
000300 de cb 27 3e a3 f9 f1 bc 97 65 41 3d 39 5f 59 3e
       0.16386363 -0.029537981 0.047216024 0.21227731
000310 a2 e6 64 be 7c 50 4f 3d 73 88 41 be 5d be 20 3e
       -0.22353604 0.050613865 -0.18899707 0.15697618
000320 40 3d 64 3d 08 06 9f 3c bd 8f b3 bd 37 6f 87 3d
       0.055722475 0.019412056 -0.0876765 0.066130094
000330 88 28 ee bd 97 18 10 3d 98 86 49 3e 0e ad 2d be
       -0.116288245 0.0351797 0.1968025 -0.16960546
000340 bf 3e 7b bd 73 03 33 3d 0a c3 0b 3d 8c df aa bc
       -0.061339136 0.04370446 0.03412155 -0.020858549
000350 aa 33 4a 3e e6 fc 61 bd 3b 36 73 3d 32 ba 02 3e
       0.19746271 -0.055172823 0.05937789 0.1276634
000360 30 1f 34 bd 78 91 14 3e 89 f3 08 3e ed 17 e5 3d
       -0.043975055 0.14508617 0.13374151 0.11186204
000370 80 e1 83 bd 2a 90 4f 3e 52 ad 02 be d3 ce 8e 3d
       -0.06439495 0.20269838 -0.12761429 0.06973042
000380 5e c8 22 3d 6b 14 23 3e 2f 60 23 be 57 c9 a2 3d
       0.039741866 0.15925758 -0.1595466 0.07948559
000390 96 11 0a be 24 46 cf 3d 07 ef 9e 3d 02 4e 1e be
       -0.13483271 0.101208 0.077604346 -0.15459445
0003a0 e2 03 67 bc bf 9e 8f 3d 99 53 d3 3d 67 be 26 3e
       -0.014100047 0.070127 0.10318679 0.1628357
0003b0 e6 4d ba 3d 93 7d 8d 3c ef 33 e2 3d 00 91 4f be
       0.09096889 0.017271793 0.11045062 -0.20270157
0003c0 ab c1 06 3e e2 02 40 bd 8f ce c8 3d 3e 13 78 bc
       0.13159816 -0.04687775 0.09805023 -0.015141306
0003d0 73 2c ca 3c 30 73 d8 3d 7a a4 a7 bd e6 b7 2d 3c
       0.024679398 0.10568845 -0.08185668 0.010602927
0003e0 4d 1c 07 3e 44 f9 3e bd 68 b5 b6 3d 2f 09 2f be
       0.1319439 -0.046624437 0.08921319 -0.17093347
0003f0 9d 31 f6 bd a4 bb a8 3d d8 39 d1 3d 85 8b 1c be
       -0.12021182 0.082389146 0.10216111 -0.15287597
